Realisation/03_Deploiement_du_modele/lstm_model.pth (torch, 205666 bytes, 9 tensors)

lstm.weight_ih_l0 f4 [256, 1]
-0.06202027 0.024009975 -0.021777313 0.015121668 -0.097374834 0.023244312 0.025953773 -0.08077797
0.032328375 -0.123218566 0.1519982 0.113435805 -0.06362131 -0.041165467 0.08911901 -0.083580256
-0.03899938 -0.012098576 0.0048560156 -0.03786188 -0.065990545 -0.016108628 0.034347653 -0.03366046
0.019449864 0.14304918 -0.003501259 -0.07303251 0.10321898 -0.025484346 0.14782344 0.0016683183
0.11205818 0.014314176 0.09290028 0.05338625 0.11124401 0.004442063 -0.0046693836 0.03246169
-0.077727415 0.005142515 -0.06803349 -0.07604008 0.11089777 -0.07687978 0.10021706 0.12592736
0.0047919285 -0.06053866 0.03876321 -0.061361894 -0.01627944 0.08778505 0.1624455 -0.014486926
0.024444543 0.015127766 0.05661237 0.07684487 0.052220322 -0.07283979 0.065998174 0.050715275
0.03257236 -0.060206786 -0.005763741 0.08496668 -0.060228195 0.13635205 0.08345432 0.1285862
0.010504012 -0.019517628 -0.015442933 0.11740908 -0.1349707 0.03433763 -0.04712281 0.083811045
0.0014929917 0.061176788 0.15436071 -0.0794403 -0.03948766 0.033998325 0.15479888 0.05934812
-0.08008802 0.008052529 0.060773503 0.054724365 -0.089288816 -0.006425948 -0.04442845 0.15563706
0.11169005 0.04164611 0.077911474 0.1373115 0.040017642 0.079063736 0.07178479 0.15519361
0.03295155 -0.11018323 -0.10716806 -0.020865144 0.11475937 -0.08862275 -0.0705215 -0.02546524
0.006924226 0.059078474 -0.05043208 0.016237814 0.14716713 -0.0070439335 -0.073961176 0.12743233
-0.09270348 -0.09621228 0.02383126 0.079267316 0.115684055 -0.05076043 -0.0034823364 0.04833005
0.08195943 0.063822106 -0.008407446 -0.1397163 -0.007038715 -0.1497345 -0.08711096 0.14901288
0.050754253 -0.10884313 -0.0851621 0.105325885 0.117811725 -0.1439328 -0.010940421 -0.013051687
0.14541902 -0.14757033 0.08708729 -0.128082 -0.028134793 0.07413302 -0.15051465 0.12926997
0.12676749 0.040386327 0.07200932 -0.06770281 0.086265415 -0.08885253 0.068455994 0.13556612
0.12616207 0.095380664 -0.0025937837 0.122734204 0.05119226 -0.031913064 0.06415333 0.13281569
-0.16550867 0.12915756 -0.07230937 -0.09806134 0.0376005 0.11284265 -0.06538304 -0.12215448
0.037978664 0.08693622 0.066138215 0.007999237 -0.12632936 -0.06553983 0.1622391 0.12982841
-0.17166775 0.011623783 0.12706198 -0.020315275 -0.1273342 0.15679997 -0.13699938 -0.046065878
-0.0152840465 0.04309737 0.020135274 -0.0003835066 -0.040064283 0.12213416 -0.07953184 0.08995515
0.018355273 -0.06298169 0.04313176 0.13455153 0.01784109 -0.04831224 -0.10464475 -0.024127563
0.016609931 0.046310976 0.045968704 -0.05909309 0.05045008 -0.06836039 0.11030456 0.02741572
0.054114595 -0.034264266 0.068813294 -0.111179665 0.09221777 0.028160013 0.10444713 -0.043607697
0.13495095 0.02771306 0.012965808 0.002380258 0.008680242 0.1181469 0.037758876 -0.055056393
0.029166369 -0.099427044 -0.020079382 0.0007926975 0.097448245 0.023941822 0.12605824 0.036285844
0.1192598 -0.0038908173 -0.034583457 0.09087096 -0.072953075 -0.059052438 -0.036446445 -0.05723122
0.086380325 -0.004566739 -0.15202278 0.07165931 0.033832908 0.057971425 0.050883375 0.009345918
00000000: f708 7ebd 91b0 c43c 5666 b2bc dfc0 773c
00000010: 756c c7bd db6a be3c 029d d43c ec6e a5bd
00000020: c26a 043d 045a fcbd 6ba5 1b3e 0851 e83d
00000030: e44b 82bd 1f9d 28bd 0784 b63d 202c abbd
00000040: d0bd 1fbd 1b39 46bc 361f 9f3b 0f15 1bbd
00000050: 0d26 87bd 3ef6 83bc 20b0 0c3d 8ddf 09bd
00000060: 5255 9f3c 7c7b 123e 6175 65bb 1292 95bd
00000070: 7964 d33d 8cc4 d0bc 075f 173e 79ab da3a
00000080: c27e e53d 0186 6a3c 8142 be3d 8aab 5a3d
00000090: e6d3 e33d ba8e 913b a101 99bb 8df6 043d
000000a0: 8d2f 9fbd 8b82 a83b 2455 8bbd e7ba 9bbd
000000b0: 5f1e e33d 2573 9dbd 9a3e cd3d 1af3 003e
000000c0: 9c05 9d3b 63f7 77bd 2cc6 1e3d 9c56 7bbd
000000d0: 765c 85bc a6c8 b33d 1d58 263e 925a 6dbc
000000e0: ec3f c83c 73da 773c 5fe2 673d d860 9d3d
000000f0: fae4 553d 072d 95bd 0d2a 873d d2ba 4f3d
00000100: 986a 053d 649b 76bd c4dd bcbb 0303 ae3d
00000110: d7b1 76bd df9f 0b3e 19ea aa3d 1aac 033e
00000120: 0519 2c3c 6fe3 9fbc 5b04 7dbc 2c74 f03d
00000130: c235 0abe 9da5 0c3d d903 41bd 20a5 ab3d
00000140: 7db0 c33a 8394 7a3d bc10 1e3e 99b1 a2bd
00000150: d0bd 21bd d441 0b3d 9983 1e3e 0417 733d
00000160: 3005 a4bd c1ee 033c a3ed 783d a826 603d
00000170: 0edd b6bd c290 d2bb 9bfa 35bd 525f 1f3e
00000180: c1bd e43d 1d95 2a3d 0d90 9f3d 639b 0c3e
00000190: 8ae9 233d 2bec a13d e703 933d 13eb 1e3e
000001a0: 34f8 063d bfa7 e1bd ee7a dbbd 61ed aabc
000001b0: f606 eb3d d87f b5bd 946d 90bd 7b9c d0bc
000001c0: 9ee4 e23b 45fc 713d de91 4ebd 2a05 853c
000001d0: fbb2 163e ccd0 e6bb f578 97bd 9f7d 023e
000001e0: 52db bdbd f20a c5bd c639 c33c e756 a23d
000001f0: c3eb ec3d 2bea 4fbd e937 64bb bbf5 453d
00000200: 58da a73d 2ab5 823d 62bf 09bc ca11 0fbe
00000210: 05a5 e6bb 0054 19be 3b67 b2bd d596 183e
00000220: b1e3 4f3d 26e9 debd 7869 aebd 19b5 d73d
00000230: 4647 f13d 1f63 13be 743f 33bc bed6 55bc
00000240: b9e8 143e ad1c 17be d25a b23d ee27 03be
00000250: f07a e6bc 0ed3 973d 8320 1abe 595f 043e
00000260: 56cf 013e 226c 253d 9f79 933d c5a7 8abd
00000270: ecab b03d 51f8 b5bd a832 8c3d d8d1 0a3e
00000280: a130 013e f056 c33d 78fc 29bb 125c fb3d
00000290: faae 513d 46b7 02bd d262 833d d600 083e
000002a0: 1b7b 29be e141 043e ef16 94bd 62d4 c8bd
000002b0: fb02 1a3d 0c1a e73d 8be7 85bd 212c fabd
000002c0: 848f 1b3d 9e0b b23d 7973 873d 3b0f 033c
000002d0: 7c5c 01be bf39 86bd 0222 263e bdf1 043e
000002e0: acc9 2fbe ae71 3e3c 891c 023e 386c a6bc
000002f0: e663 02be 2c90 203e 9149 0cbe 93af 3cbd
00000300: f069 7abc de86 303d bbf2 a43c 6211 c9b9
00000310: 721a 24bd 7921 fa3d 97e1 a2bd 683a b83d
00000320: cc5d 963c 8bfc 80bd eeaa 303d e0c7 093e
00000330: 7a27 923c 0ee3 45bd fd4f d6bd 2ba7 c5bc
00000340: 8d11 883c 94b0 3d3d ae49 3c3d 990b 72bd
00000350: bea4 4e3d 8800 8cbd 5be7 e13d ef96 e03c
00000360: 44a7 5d3d b058 0cbd fced 8c3d 2ab2 e3bd
00000370: acdc bc3d d4af e63c 60e8 d53d fc9d 32bd
00000380: 9530 0a3e 8006 e33c 8a6e 543c 1afe 1b3b
00000390: 9337 0e3c 00f7 f13d 0da9 1a3d d082 61bd
000003a0: 4fee ee3c 68a0 cbbd 847d a4bc 07cd 4f3a
000003b0: f292 c73d a421 c43c 6915 013e 77a0 143d
000003c0: 7b3e f43d 15fd 7ebb 62a7 0dbd 8e1a ba3d
000003d0: 6c68 95bd f8e0 71bd de48 15bd 496b 6abd
000003e0: 2be8 b03d 95a4 95bb dcab 1bbe 1ec2 923d
000003f0: 6094 0a3d 7273 6d3d 166b 503d 9f1f 193c

lstm.weight_hh_l0 f4 [256, 64]
0.10379125 -0.0319229 0.048759185 -0.008303003 -0.028596492 0.04269964 -0.13079932 -0.054408513
0.05532497 -0.03482201 -0.094797835 0.0021812788 0.14549902 0.10665145 0.08797475 0.05876965
0.040647563 0.11837045 -0.06650983 -0.08197478 0.077614844 0.08342389 -0.024340639 0.01668995
0.14037916 0.052196696 -0.078450784 0.031284392 0.006379676 0.026380153 0.13055314 -0.046962023
-0.037274662 -0.108352736 0.049299695 0.038827166 0.0615047 -0.11847958 0.020861363 -0.13066645
-0.11271343 0.0489813 0.09453056 0.022439297 0.02669824 0.14155237 0.08566422 -0.0036534483
-0.13955319 -0.12036897 0.084235884 0.06489396 -0.12252564 0.012716078 0.07165378 -0.05205033
0.06293922 -0.04474468 -0.07465766 0.0040502325 0.11058402 0.100660875 0.0066169137 -0.015029439
-0.040618006 -0.04906409 -0.08751123 0.0052251425 -0.10294873 -0.1096081 0.041344125 0.09526429
-0.08981362 0.07535409 0.03245804 -0.0070566786 0.034359194 0.01504874 0.04413913 0.09408694
0.07350945 -0.118446946 0.12410822 0.03794007 -0.11123297 0.08504932 -0.042231552 0.095789045
0.09440271 -0.087820776 -0.03848551 -0.015522991 0.10752748 0.014740557 -0.11825145 0.026420936
-0.05993663 0.067668736 -0.08409643 0.079468295 0.1261103 -0.060508016 0.11253822 -0.04507641
0.061583657 0.14166634 -0.072462365 -0.0012286801 -0.088490196 -0.028161366 0.042208433 0.086317174
0.09545795 -0.05575387 -0.1039312 0.04109464 -0.1280507 -0.040089253 0.0540352 -0.011765987
0.0056464327 0.0608412 0.040833082 0.105177216 -0.11563434 -0.03736635 -0.024812324 0.031461433
-0.010188108 0.05483527 -0.0640978 -0.097872704 -0.032836337 -0.04358158 -0.12680776 0.061602183
0.09187202 -0.12245195 -0.07923879 0.06226712 -0.04121054 -0.10584955 0.05811688 -0.024932036
0.0054302057 0.010796362 0.036965918 -0.11652703 0.118465155 0.117455445 0.07751669 0.03557393
0.017562274 0.05172851 0.00816282 0.015973449 0.13473679 0.040732298 0.1265491 -0.05303843
0.061656553 0.0444464 0.06374106 0.087716796 -0.09370257 -0.0641413 -0.09480907 0.069540136
0.03318946 -0.004649285 -0.047962956 -0.048944697 0.056447726 -0.0689114 0.08600051 0.054803807
-0.011965377 -0.09097679 -0.058773473 0.0040395223 0.011683277 0.034797844 -0.0603322 0.010494551
-0.023636112 0.11513008 0.0409881 0.06469301 -0.023306556 0.07069082 0.05130493 -0.12883273
0.0666842 -0.09789283 0.056451805 0.0017887285 -0.09871689 -0.07163617 -0.09776311 0.014616227
0.019849181 0.09086514 -0.115173414 -0.05119262 0.021721005 -0.08712426 0.08160811 -0.06709834
0.13812535 0.08474913 -0.06668047 -0.070092574 0.05916988 0.050268203 0.005406808 -0.004536341
-0.07939439 0.08641961 0.07525961 0.08403099 0.0007577349 -0.07156972 -0.0057949102 -0.039511446
-0.015596519 0.051140238 0.026294863 0.06717329 0.0027990728 -0.09790991 0.13231555 -0.057599183
-0.04097615 0.025956811 0.021489123 0.061831534 0.018432397 -0.0988739 0.10698176 0.024851164
-0.11018644 0.06850301 0.06148908 -0.08630057 -0.036615226 -0.013053688 -0.032910813 0.10030516
-0.09198654 0.060803205 0.029990867 0.0014061028 0.027974045 0.12961261 0.0908392 -0.093922794
00000000: 8290 d43d 96c1 02bd b6b7 473d 5209 08bc
00000010: 3143 eabc d1e5 2e3d 42f0 05be 76db 5ebd
00000020: 709c 623d 86a1 0ebd 5e25 c2bd c9f3 0e3b
00000030: b2fd 143e 136c da3d 1b2c b43d 72b8 703d
00000040: 0f7e 263d 356c f23d 4e36 88bd 65e2 a7bd
00000050: 88f4 9e3d 25da aa3d 0566 c7bc 5db9 883c
00000060: 8ebf 0f3e 34cc 553d ceaa a0bd 1024 003d
00000070: 9a0c d13b 311b d83c b9af 053e 405b 40bd
00000080: 51ad 18bd 0ae8 ddbd 7aee 493d 3c09 1f3d
00000090: 5aec 7b3d 6ca5 f2bd 73e5 aa3c 6dcd 05be
000000a0: 4cd6 e6bd 9ea0 483d 3d99 c13d 9ed2 b73c
000000b0: 44b6 da3c 1bf3 103e b970 af3d b16e 6fbb
000000c0: 08e7 0ebe 0284 f6bd dd83 ac3d 20e7 843d
000000d0: b9ee fabd 1957 503c 38bf 923d ba32 55bd
000000e0: 47e6 803d 3346 37bd 1ee6 98bd d0b7 843b
000000f0: e079 e23d 4a27 ce3d b2d2 d83b 093e 76bc
00000100: 115f 26bd 6df7 48bd 1639 b3bd ac37 ab3b
00000110: c9d6 d2bd 367a e0bd 7558 293d ed19 c33d
00000120: 34f0 b7bd 3f53 9a3d b9f2 043d b63b e7bb
00000130: 3abc 0c3d fe8e 763c 3bcb 343d a7b0 c03d
00000140: 1f8c 963d 5094 f2bd 732c fe3d 0c67 1b3d
00000150: 1dce e3bd 562e ae3d fefa 2cbd 0c2d c43d
00000160: 3556 c13d 61db b3bd fba2 1dbd 2554 7ebc
00000170: 5e37 dc3d 6182 713c d12d f2bd b870 d83c
00000180: 1d80 75bd e895 8a3d c03a acbd 46c0 a23d
00000190: 0f23 013e 41d7 77bd 707a e63d 0ba2 38bd
000001a0: 253f 7c3d fb10 113e 2667 94bd aa0b a1ba
000001b0: 593a b5bd aab2 e6bc c0e2 2c3d 0fc7 b03d
000001c0: 757f c33d 2c5e 64bd e2d9 d4bd da52 283d
000001d0: b91f 03be a134 24bd 0454 5d3d 20c6 40bc
000001e0: b605 b93b 9f34 793d 9740 273d 2767 d73d
000001f0: b2d1 ecbd 750d 19bd 3743 cbbc b4dd 003d
00000200: 06ec 26bc f39a 603d b545 83bd 7c71 c8bd
00000210: 657f 06bd 9982 32bd e5d9 01be 9252 7c3d
00000220: 6627 bc3d 17c8 fabd f247 a2bd cf0b 7f3d
00000230: 62cc 28bd a6c7 d8bd f70b 6e3d 453e ccbc
00000240: deef b13b 39e3 303c 9369 173d b9a5 eebd
00000250: dc9d f23d 7b8c f03d 12c1 9e3d f8b5 113d
00000260: c2de 8f3c 46e1 533d 59bd 053c c0da 823c
00000270: 71f8 093e e9d6 263d 1696 013e d33e 59bd
00000280: 958b 7c3d 6e0d 363d ac8a 823d dda4 b33d
00000290: 22e7 bfbd 845c 83bd 422b c2bd 0f6b 8e3d
000002a0: acf1 073d 0859 98bb ce74 44bd 3c7a 48bd
000002b0: bb35 673d 6c21 8dbd 0921 b03d f579 603d
000002c0: 6e0a 44bc 0a52 babd 74bc 70bd f85d 843b
000002d0: 376b 3f3c 2f88 0e3d e61e 77bd 56f1 2b3c
000002e0: 85a0 c1bc 52c9 eb3d 23e3 273d c57d 843d
000002f0: 64ed bebc 59c6 903d 1e25 523d baec 03be
00000300: ba91 883d 097c c8bd 023a 673d c573 ea3a
00000310: 152c cabd fcb5 92bd 0738 c8bd e678 6f3c
00000320: c09a a23c 8117 ba3d 0ae0 ebbd 5aaf 51bd
00000330: 40f0 b13c 346e b2bd 2722 a73d db6a 89bd
00000340: bb70 0d3e f490 ad3d c58f 88bd b28c 8fbd
00000350: 1e5c 723d 08e6 4d3d 982b b13b 96a5 94bb
00000360: 8799 a2bd c4fc b03d b621 9a3d 7118 ac3d
00000370: baa2 463a 2593 92bd 3be3 bdbb c1d6 21bd
00000380: 8b88 7fbc 6d78 513d 5368 d73c 2692 893d
00000390: a670 373b fe84 c8bd ba7d 073e 1fed 6bbd
000003a0: 9cd6 27bd 61a3 d43c f509 b03c 1043 7d3d
000003b0: 8aff 963c 667e cabd 4119 db3d ab94 cb3c
000003c0: 6ea9 e1bd 4e4b 8c3d f9db 7b3d 5abe b0bd
000003d0: d9f9 15bd 23df 55bc 7dcd 06bd cb6c cd3d
000003e0: 7063 bcbd c80c 793d 68af f53c fb4c b83a
000003f0: d329 e53c 2bb9 043e e709 ba3d 985a c0bd

lstm.bias_ih_l0 f4 [256]
-0.13204736 0.076677926 0.021098347 0.02765611 -0.10175567 0.057831727 -0.05378361 0.052863494
-0.06505005 -0.037867337 0.13358024 0.11391268 -0.09683853 0.12530349 -0.06463066 -0.09409812
0.042073544 0.07469938 -0.046588704 0.06631163 -0.06385053 0.05335748 -0.089284234 0.10991572
0.079475045 -0.016866487 -0.06439121 -0.07646192 -0.12038248 0.10947709 0.085339144 0.006557334
0.14309049 0.030879943 0.052889414 0.14133576 -0.023177238 0.116846554 0.007129693 -0.097884215
0.063217714 0.045311395 -0.089756936 -0.1053452 -0.11840267 -0.0704488 0.13532165 -0.038499102
0.09055393 0.09881923 -0.0895468 -0.06677034 0.13665406 -0.08856139 -0.069993585 0.054247595
-0.081562944 0.082372166 0.03492799 0.0044716005 0.029051192 -0.057874437 0.053826082 -0.0932943
-0.111159526 0.04661542 0.058820255 -0.115855895 -0.056760475 0.09858531 0.11204288 0.016636776
0.04615989 0.10527959 0.10577591 0.009394084 -0.036219593 -0.027326424 -0.14439633 -0.061761223
-0.0032558222 0.0786533 -0.053700335 -0.044028234 -0.08056926 0.028652605 0.09968458 0.023676334
0.13620329 -0.0049968846 -0.05539533 -0.07634152 -0.11841505 0.066141255 0.075540304 -0.066429086
0.10521024 0.0981237 -0.011305824 0.03648182 0.002487282 0.008984217 0.07102406 0.098706625
0.030213937 -0.07277801 -0.108518 -0.07122216 0.03929218 -0.080190815 0.07816312 -0.11416399
-0.1120737 0.051755056 0.042173367 0.008040046 0.08174264 -0.085949786 -0.05549083 0.02645131
0.022841264 -0.13190693 0.109522894 0.06033258 0.0763016 0.07510784 -0.0065872646 -0.004478005
-0.042365544 0.073461324 0.0066697276 -0.058884077 -0.023690574 0.09597854 0.027812432 0.060636573
0.00074656296 0.096179456 -0.0888558 -0.078597024 -0.04873128 0.08349546 -0.08477071 -0.06414797
-0.04381607 0.05608692 -0.025447251 -0.07782382 -0.06829829 -0.11616404 0.020498384 0.08081067
-0.078364454 0.108317636 -0.10989144 0.036832187 0.053015176 0.024553599 -0.117280096 0.05286091
-0.04130733 -0.035541445 0.06998276 0.10830771 0.08381999 0.11124593 0.026492082 -0.009151573
0.0033847354 -0.08607414 -0.036973882 0.0012103101 -0.07522788 -0.009297143 0.022797516 -0.090203635
-0.027142262 0.08782768 -0.10910506 -0.042887554 0.115166746 0.103563696 -0.08241727 -0.09603087
-0.06776486 0.09129512 -0.06604948 0.041714385 -0.034355015 -0.08624835 0.012790117 -0.039283395
-0.04382506 0.13057919 -0.07154531 0.050522856 -0.07398743 0.065334015 0.07024658 0.11746207
-0.06361174 -0.0087091485 -0.10232501 0.11242499 0.124801256 0.029518193 -0.081891164 0.10278019
0.045989905 -0.05870037 0.13623405 0.1079281 0.10131406 0.05121427 0.15185145 0.102218755
-0.0003607353 -0.107206486 -0.016197046 0.026658533 -0.0076601547 0.0038982576 0.062128313 -0.1012906
0.11149479 0.07580527 0.061622348 -0.0867984 0.058430426 -0.029150847 0.01296466 -0.04819923
-0.042961575 0.034005094 0.060873702 -0.067924224 -0.019516662 -0.020633476 -0.043003708 0.1318228
-0.08672458 0.12656714 -0.1131841 0.11762708 0.045289796 -0.10338595 0.14296867 -0.06414272
0.04443284 0.08869995 0.026303971 0.03384245 0.09525079 0.059304595 0.096853465 -0.07247375
00000000: 6c37 07be 5109 9d3d 71d6 ac3c 118f e23c
00000010: 4765 d0bd f6e0 6c3d 344c 5cbd 6487 583d
00000020: f638 85bd c81a 1bbd 42c9 083e 0d4b e93d
00000030: 4753 c6bd 8f4f 003e 145d 84bd 84b6 c0bd
00000040: 4f55 2c3d fdfb 983d ccd3 3ebd 64ce 873d
00000050: 11c4 82bd 5f8d 5a3d a7da b6bd 7e1b e13d
00000060: d0c3 a23d 962b 8abc 8adf 83bd 1198 9cbd
00000070: 178b f6bd 8635 e03d 4ac6 ae3d e8de d63b
00000080: 5086 123e eff7 fc3c 92a2 583d 52ba 103e
00000090: 31de bdbc 3f4d ef3d 33a0 e93b 8577 c8bd
000000a0: 4a78 813d 7198 393d 7cd2 b7bd 39bf d7bd
000000b0: 197d f2bd 7647 90bd c291 0a3e 3cb1 1dbd
000000c0: 5774 b93d bd61 ca3d 5064 b7bd e3be 88bd
000000d0: 0bef 0b3e ad5f b5bd cc58 8fbd ba32 5e3d
000000e0: 790a a7bd bdb2 a83d a710 0f3d 8186 923b
000000f0: c4fc ed3c bf0d 6dbd bd78 5c3d 1511 bfbd
00000100: 9ba7 e3bd d0ef 3e3d 82ed 703d db45 edbd
00000110: ac7d 68bd 18e7 c93d bd76 e53d d949 883c
00000120: 2712 3d3d d39c d73d 0aa1 d83d a5e9 193c
00000130: ff5a 14bd aadb dfbc a2dc 13be 56f9 7cbd
00000140: a25f 55bb fb14 a13d e2f4 5bbd f356 34bd
00000150: 7f01 a5bd deb8 ea3c 6e27 cc3d dff4 c13c
00000160: e078 0b3e e8bc a3bb 37e6 62bd f158 9cbd
00000170: 9783 f2bd 1175 873d e0b4 9a3d f90b 88bd
00000180: 7778 d73d 14f5 c83d 103c 39bc f66d 153d
00000190: ab01 233b 8a32 133c 1075 913d b326 ca3d
000001a0: 3883 f73c a30c 95bd af3e debd ecdc 91bd
000001b0: d6f0 203d 153b a4bd fc13 a03d cfce e9bd
000001c0: e586 e5bd 1cfd 533d fbbd 2c3d 66ba 033c
000001d0: af68 a73d 7106 b0bd 5a4a 63bd 6bb0 d83c
000001e0: 9a1d bb3c 9c12 07be 8a4d e03d 4c1f 773d
000001f0: 0344 9c3d 24d2 993d fbd9 d7bb 3bbc 92bb
00000200: 7e87 2dbd e472 963d bb8d da3b 6e30 71bd
00000210: bc12 c2bc 6690 c43d e6d6 e33c 0e5e 783d
00000220: feb4 433a bcf9 c43d 08fa b5bd 7af7 a0bd
00000230: 739a 47bd abff aa3d 449c adbd 0360 83bd
00000240: 7b78 33bd 66bb 653d c176 d0bc 1862 9fbd
00000250: f9df 8bbd 6ae7 edbd 3aec a73c 1180 a53d
00000260: 8b7d a0bd a3d5 dd3d c30e e1bd 59dd 163d
00000270: 7126 593d a124 c93c 8c30 f0bd ae84 583d
00000280: e031 29bd e893 11bd 1f53 8f3d 6fd0 dd3d
00000290: d1a9 ab3d e8d4 e33d ec05 d93c 7bf0 15bc
000002a0: 70d2 5d3b a447 b0bd ed71 17bd 45a3 9e3a
000002b0: 1311 9abd 0b53 18bc dbc1 ba3c afbc b8bd
000002c0: 7359 debc 00df b33d 7972 dfbd dcaa 2fbd
000002d0: 8bdc eb3d 3419 d43d 63ca a8bd d5ab c4bd
000002e0: 4ec8 8abd f0f8 ba3d f344 87bd b4dc 2a3d
000002f0: d8b7 0cbd faa2 b0bd a48d 513c a0e7 20bd
00000300: e881 33bd 8db6 053e 5986 92bd 0ef1 4e3d
00000310: b986 97bd d7cd 853d 70dd 8f3d f48f f03d
00000320: df46 82bd d1b0 0ebc c68f d1bd 133f e63d
00000330: cd97 ff3d 23d0 f13c 8eb6 a7bd 6c7e d23d
00000340: e95f 3c3d cd6f 70bd f080 0b3e 6809 dd3d
00000350: bf7d cf3d 0ec6 513d f27e 1b3e 1158 d13d
00000360: 1321 bdb9 138f dbbd abaf 84bc ff62 da3c
00000370: 0902 fbbb e979 7f3b 427a 7e3d 7271 cfbd
00000380: 6157 e43d cb3f 9b3d b767 7c3d 5cc3 b1bd
00000390: be54 6f3d c2cd eebc ba69 543c 8e6c 45bd
000003a0: 7af8 2fbd ed48 0b3d b456 793d db1b 8bbd
000003b0: 68e1 9fbc 8907 a9bc a824 30bd 8efc 063e
000003c0: a89c b1bd d19a 013e 11cd e7bd 77e6 f03d
000003d0: cb81 393d 03bc d3bd 6166 123e 425d 83bd
000003e0: 36ff 353d 52a8 b53d 6d7b d73c 619e 0a3d
000003f0: d912 c33d 60e9 723d 1c5b c63d 1e6d 94bd

lstm.bias_hh_l0 f4 [256]
0.10295557 -0.07854252 -0.06402402 0.08466344 -0.033228986 0.0043807495 -0.07634487 -0.031879146
0.0777165 0.030928899 0.06328432 -0.030074868 0.09593832 0.12357686 0.06685518 -0.067737475
-0.076982446 -0.033456724 0.09519077 0.014745832 0.0069721052 -0.116116315 -0.08997377 0.07770333
-0.0004377393 -0.025982153 0.026799 -0.14032267 -0.071097784 0.10166184 -0.10379809 -0.008405015
-0.018388594 0.09865952 -0.06869404 0.112606615 0.07770704 -0.0632999 -0.012812439 0.04917807
-0.04073386 -0.03447636 -0.10814324 0.05912469 0.091412686 0.038275488 0.01242887 -0.09559124
-0.07662604 0.11383013 -0.06067871 0.046789072 0.02726422 -0.019294422 0.07534177 0.00824197
0.02460707 -0.12738743 -0.061376072 -0.05622763 -0.07266547 0.16280597 -0.007857644 0.04522905
0.10732756 -0.02379036 0.049140707 -0.021771008 0.022123206 0.1108187 -0.046463087 -0.08444346
0.0005912968 0.048758715 -0.0067033595 0.09016519 0.14161047 0.031227952 0.04880314 -0.08759636
-0.07671127 0.13880287 0.04454401 0.06455698 0.120040104 -0.109650426 -0.009564018 0.060727894
-0.067273594 0.0015054616 -0.032276347 0.07300204 0.027591677 -0.10472263 0.070886165 0.054690693
0.0091892285 0.04797805 -0.063360184 0.06718175 -0.054672185 0.09898305 -0.10588102 0.11734492
-0.03595759 0.028986346 -0.0702006 0.031189397 -0.061414562 0.13160805 0.0723106 0.00013330152
-0.063961424 0.072439335 -0.0008372428 0.00893501 0.069623105 0.014344179 -0.021298442 0.0040306477
0.13180313 -0.13216294 -0.06789771 0.0881512 -0.037532054 0.064299814 0.099322475 0.0898499
-0.018102625 0.11810007 -0.062082935 -0.038356166 0.051713154 -0.037585184 0.06350955 -0.032166965
-0.08503885 -0.08713713 -0.015243422 0.122608826 -0.057548266 -0.073375694 -0.07064974 -0.02989471
0.051283024 0.029142778 0.0253105 0.012961943 0.011976068 -0.008515154 -0.03728151 0.0004738525
-0.067047484 -0.09055125 -0.06526392 -0.014860914 0.07621808 0.11954411 -0.046128422 0.074777946
0.030871822 0.111645624 -0.017637061 -0.042896334 -0.039376926 -0.0640893 0.046211567 0.11837399
-0.01568298 0.07417026 -0.09820561 -0.035096485 0.001733773 -0.08910356 -0.08746943 -0.07868632
0.07243856 -0.08637664 -0.030417679 0.06745887 -0.09895199 0.056101333 0.10379151 0.09221744
0.02703386 -0.036143824 -0.0801728 0.035229042 0.0696313 0.093628034 0.018702425 0.053461
-0.016476793 -0.006244899 -0.06193255 -0.0342514 -0.08859753 0.0039234594 0.10950817 -0.03308345
-0.07115511 0.07561661 0.06325402 -0.035285316 0.09229439 -0.078331366 -0.09434803 -0.07715021
0.0248608 -0.0022555054 -0.08504958 -0.036695823 -0.026642792 0.07906894 0.07351741 0.03946491
-0.0024605922 0.1019031 -0.1069281 0.0224012 0.039093155 0.082569785 -0.01924265 -0.058148403
0.019421022 -0.07130919 0.016525779 -0.02091247 -0.08983348 0.1223723 0.005240939 0.034368806
0.006793494 0.024200464 -0.12358104 -0.08399729 -0.09080521 0.08697788 0.053644612 0.11691606
-0.056538954 0.07340703 0.12630565 0.03716261 0.097752064 0.10468755 0.006373115 0.122348666
0.049800478 0.07567237 -0.10728224 -0.06318781 0.07563713 -0.014375012 0.0247117 -0.04027498
00000000: 5fda d23d e7da a0bd 071f 83bd 0764 ad3d
00000010: 1e1b 08bd 648c 8f3b b35a 9cbd b593 02bd
00000020: d429 9f3d 9a5e fd3c 369b 813d 925f f6bc
00000030: 4f7b c43d dd15 fd3d 5eeb 883d f2b9 8abd
00000040: f9a8 9dbd eb09 09bd 61f3 c23d 8198 713c
00000050: 4276 e43b 64ce edbd 2b44 b8bd ec22 9f3d
00000060: 6080 e5b9 86d8 d4bc 9489 db3c bfb0 0fbe
00000070: b79b 91bd 1534 d03d 1894 d4bd 30b5 09bc
00000080: ada3 96bc 010e ca3d 76af 8cbd 4c9e e63d
00000090: de24 9f3d 61a3 81bd 44eb 51bc f26e 493d
000000a0: 8cd8 26bd 1537 0dbd 347a ddbd bb2c 723d
000000b0: 9336 bb3d c2c6 1c3d 76a2 4b3c 57c5 c3bd
000000c0: 1dee 9cbd c51f e93d 3d8a 78bd e6a5 3f3d
000000d0: 3759 df3c 560f 9ebc c94c 9a3d 5409 073c
000000e0: c494 c93c da71 02be 7a65 7bbd f14e 66bd
000000f0: a2d1 94bd 9cb6 263e 59bd 00bc 1942 393d
00000100: 8dce db3d 00e4 c2bc c447 493d 1d59 b2bc
00000110: ba3b b53c eaf4 e23d 1450 3ebd b1f0 acbd
00000120: 4201 1b3a 38b7 473d dba7 dbbb 87a8 b83d
00000130: 5602 113e c3d1 ff3c cde5 473d b865 b3bd
00000140: cc1a 9dbd 5722 0e3e c873 363d 7336 843d
00000150: 96d7 f53d 6790 e0bd 66b2 1cbc d0bd 783d
00000160: bdc6 89bd e952 c53a 3434 04bd 1882 953d
00000170: f107 e23c d178 d6bd c42c 913d 5903 603d
00000180: 6b8e 163c a284 443d fcc2 81bd 9696 893d
00000190: f1ef 5fbd a0b7 ca3d 26d8 d8bd 8952 f03d
000001a0: 4448 13bd c674 ed3c 55c5 8fbd e880 ff3c
000001b0: d68d 7bbd 43c4 063e 9417 943d dbc6 0b39
000001c0: 35fe 82bd 135b 943d 6a7a 5bba 2664 123c
000001d0: 8f96 8e3d d903 6b3c 127a aebc 8613 843b
000001e0: 66f7 063e b955 07be f40d 8bbd 9e88 b43d
000001f0: 36bb 19bd 9faf 833d 9569 cb3d 3903 b83d
00000200: f54b 94bc 73de f13d ad4a 7ebd 5b1b 1dbd
00000210: 2cd1 533d ecf2 19bd 4c11 823d 82c1 03bd
00000220: d928 aebd f474 b2bd 8cbf 79bc 561a fb3d
00000230: bbb7 6bbd ff45 96bd d0b0 90bd c0e5 f4bc
00000240: 260e 523d d6bc ee3c f757 cf3c 545e 543c
00000250: 4537 443c 2583 0bbc 7fb4 18bd 686f f839
00000260: 3150 89bd ef72 b9bd 17a9 85bd 317b 73bc
00000270: 3a18 9c3d 8bd3 f43d 28f1 3cbd 2e25 993d
00000280: e7e6 fc3c 76a6 e43d 997b 90bc 11b4 2fbd
00000290: b349 21bd 4041 83bd 5748 3d3d 106e f23d
000002a0: 9879 80bc 94e6 973d 0620 c9bd 55c1 0fbd
000002b0: c53f e33a ed7b b6bd 2c23 b3bd 4b26 a1bd
000002c0: ab5a 943d 3ce6 b0bd 7f2e f9bc e027 8a3d
000002d0: 57a7 cabd 83ca 653d a590 d43d 7fdc bc3d
000002e0: 1d76 dd3c 8c0b 14bd a331 a4bd 544c 103d
000002f0: db9a 8e3d 0ec0 bf3d d435 993c ecf9 5a3d
00000300: 57fa 86bc 02a2 ccbb fcac 7dbd 324b 0cbd
00000310: 9f72 b5bd 5d90 803b d245 e03d 8382 07bd
00000320: c5b9 91bd e2dc 9a3d 538b 813d 5687 10bd
00000330: d704 bd3d 326c a0bd 8a39 c1bd ee00 9ebd
00000340: e0a8 cb3c 1ad1 13bb 792e aebd 5c4e 16bd
00000350: fc41 dabc e5ee a13d 4c90 963d f5a5 213d
00000360: e341 21bb 93b2 d03d 1ffd dabd b982 b73c
00000370: 2520 203d 591a a93d c3a2 9dbc 052d 6ebd
00000380: d618 9f3c 8d0a 92bd 1261 873c a150 abbc
00000390: 9efa b7bd 549e fa3d 2fbc ab3b 4ec6 0c3d
000003a0: f59b de3b 0d40 c63c 0e18 fdbd c506 acbd
000003b0: 15f8 b9bd 7521 b23d 74ba 5b3d b071 ef3d
000003c0: 6495 67bd 6d56 963d 4556 013e d237 183d
000003d0: 3c32 c83d 6d66 d63d 90d5 d03b f091 fa3d
000003e0: 96fb 4b3d 1efa 9a3d cbb6 dbbd 9c68 81bd
000003f0: a4e7 9a3d 2c85 6bbc 3170 ca3c 61f7 24bd

lstm.weight_ih_l1 f4 [256, 64]
-0.0052242214 -0.040758517 -0.102490745 -0.136065 0.052839696 0.01929907 -0.097711004 0.012748276
0.09836668 -0.14038172 0.09747165 -0.07435251 -0.094923116 -0.06189904 -0.123127036 -0.11979656
-0.04759886 0.02242691 0.015935745 -0.051299535 -0.05296245 0.07223701 0.08566736 0.07785771
-0.10633201 -0.052515555 0.12210516 -0.03339316 -0.056398366 -0.051452518 -0.043451604 0.07563563
-0.07177515 0.13023011 0.08885274 -0.08828775 0.09435752 -0.052222747 -0.0027015454 -0.10504369
0.0087277 -0.046585344 -0.04244845 0.005780077 -0.11628406 -0.05898364 -0.024802946 0.03257552
-0.09189013 0.11169421 0.10172886 0.08442783 -0.027906083 -0.09367084 -0.077391304 -0.056712832
0.04922612 -0.06027951 0.03134535 -0.021740979 -0.09623807 0.11922638 0.034265153 0.0010607049
-0.0516869 0.07141529 0.050922565 0.028456675 0.07234956 0.05620767 -0.11160183 -0.008387996
0.050933324 -0.019652525 -0.11916585 0.08550929 -0.049704604 -0.1176793 -0.021347934 -0.043223336
0.054866586 -0.09686773 -0.03461442 0.007642919 -0.094468094 -0.059594356 0.058788076 0.13902467
-0.08419291 0.01142875 -0.014208625 -0.11373535 -0.021126855 0.1059981 0.09777274 -0.034003526
-0.04699092 0.011542762 0.03493274 0.12259578 0.10702743 0.11870339 0.01463057 0.064697646
-0.12053869 0.09764622 0.05725198 -0.06658692 -0.08365817 -0.01793817 -0.09846173 -0.11904123
-0.093023926 0.1121001 0.021068709 -0.0693311 -0.10087066 0.068582535 0.15236458 0.12613545
-0.1337938 0.05376173 0.13593519 0.071351655 -0.1673507 0.12142002 0.06454996 -0.012686562
0.108319044 0.06302771 0.09985821 -0.10744752 -0.011855923 -0.123210795 -0.007190581 -0.056006435
0.011195167 0.026711477 0.104456216 -0.09426262 -0.05168604 -0.06028783 0.08924029 0.107281305
-0.05317742 -0.027999673 0.1366764 0.0067201047 0.08524273 0.04091959 0.040030614 -0.059200358
0.043380406 0.011673047 0.0043537416 -0.12237907 0.03896093 0.038281832 -0.06297838 0.069047764
0.11734978 -0.11851293 -0.03363266 0.055363074 -0.00091372704 -0.051760677 -0.08998946 -0.11988681
-0.11210868 0.13891874 -0.090948164 -0.044829175 -0.059609488 0.15290028 0.058897678 0.08935584
-0.06240725 0.14946423 0.11705766 0.074518286 -0.068057194 -0.09736645 0.028816437 0.12119855
-0.05024166 0.027012516 0.14107151 -0.11194501 -0.15441772 0.15960822 -0.101779215 -0.07560531
0.023349186 -0.07653879 0.062209543 -0.0877977 -0.016404865 -0.01705503 -0.0694678 0.07559072
0.11357412 -0.14991605 0.10356014 0.09511496 0.0545661 0.031562235 0.10859392 -0.034024708
0.019889863 -0.06698441 0.13728712 -0.04421126 0.092090376 -0.054170765 -0.14395162 0.057690196
-0.07271391 -0.020158596 -0.028300645 0.071155325 -0.08166362 -0.03998527 -0.10393398 0.12347975
0.09430265 0.084380075 0.10229733 -0.028724005 0.110719055 0.047163714 -0.08154169 -0.037019394
-0.002098091 0.0083794175 0.09477647 -0.13820665 -0.07275938 0.09573017 -0.06266879 -0.118013605
0.029777827 -0.07893182 -0.059239883 -0.08136911 -0.044534303 -0.03558308 -0.07825378 -0.0064534885
-0.030549804 0.11266261 -0.09713312 -0.11996773 0.027546907 0.1157927 -0.13304138 0.04630278
00000000: f22f abbb 67f2 26bd abe6 d1bd a054 0bbe
00000010: 706e 583d 1519 9e3c b51c c8bd 25de 503c
00000020: 7874 c93d 3ac0 0fbe 379f c73d 2146 98bd
00000030: 0d67 c2bd d989 7dbd 072a fcbd e657 f5bd
00000040: 06f7 42bd a4b8 b73c ae8b 823c 761f 52bd
00000050: 27ef 58bd fff0 933d 5e72 af3d dd73 9f3d
00000060: 99c4 d9bd 8d1a 57bd 4512 fa3d 44c7 08bd
00000070: f901 67bd e0bf 52bd 4ffa 31bd dae6 9a3d
00000080: dafe 92bd 0b5b 053e 6df8 b53d 35d0 b4bd
00000090: 843e c13d 85e7 55bd 690c 31bb 2521 d7bd
000000a0: a1fe 0e3c 46d0 3ebd 6dde 2dbd cd66 bd3b
000000b0: 5626 eebd d498 71bd 8c2f cbbc e96d 053d
000000c0: e430 bcbd efbf e43d 3857 d03d 80e8 ac3d
000000d0: 4c9b e4bc 7fd6 bfbd 557f 9ebd b74b 68bd
000000e0: 54a1 493d a6e7 76bd fb63 003d 231a b2bc
000000f0: 7718 c5bd f62c f43d 9e59 0c3d 5a07 8b3a
00000100: a5b5 53bd 2e42 923d 2e94 503d f91d e93c
00000110: 022c 943d 043a 663d 808f e4bd ce6d 09bc
00000120: 769f 503d 55fe a0bc 3a0d f4bd 7f1f af3d
00000130: 0e97 4bbd d801 f1bd dde1 aebc f40a 31bd
00000140: c9bb 603d 9762 c6bd dac7 0dbd 7471 fa3b
00000150: 7d78 c1bd 3619 74bd c4cb 703d 7c5c 0e3e
00000160: 556d acbd a73f 3b3c 4bcb 68bc 14ee e8bd
00000170: 3a12 adbc 8815 d93d 133d c83d 4847 0bbd
00000180: 8d79 40bd da1d 3d3c a215 0f3d 7f13 fb3d
00000190: 3231 db3d c31a f33d 0fb5 6f3c 3380 843d
000001a0: fddc f6bd befa c73d 0d81 6a3d b95e 88bd
000001b0: fa54 abbd 12f3 92bc 4ea6 c9bd e3cb f3bd
000001c0: 5483 bebd bd94 e53d 4998 ac3c 77fd 8dbd
000001d0: 4795 cebd 0075 8c3d 7605 1c3e a729 013e
000001e0: 3e01 09be 4335 5c3d 9832 0b3e d120 923d
000001f0: fb5d 2bbe 0fab f83d c532 843d 4cdb 4fbc
00000200: 60d6 dd3d ac14 813d 7682 cc3d 720d dcbd
00000210: 583f 42bc f155 fcbd f79e ebbb 0167 65bd
00000220: ef6b 373c 07d2 da3c 24ed d53d c30c c1bd
00000230: beb4 53bd 5ff0 76bd 9dc3 b63d 4db6 db3d
00000240: 91d0 59bd 925f e5bc e6f4 0b3e 5334 dc3b
00000250: be93 ae3d 4d9b 273d 24f7 233d 137c 72bd
00000260: a7af 313d 4f40 3f3c d5a9 8e3b e1a1 fabd
00000270: 7f95 1f3d 69cd 1c3d cffa 80bd ea68 8d3d
00000280: 1555 f03d e8b6 f2bd 66c2 09bd 64c4 623d
00000290: 2f87 6fba 0103 54bd 654c b8bd 3787 f5bd
000002a0: 3c99 e5bd b740 0e3e 0843 babd cc9e 37bd
000002b0: 1429 74bd e491 1c3e b13e 713d 3200 b73d
000002c0: bf9e 7fbd 270d 193e edbb ef3d 0b9d 983d
000002d0: 9261 8bbd 1068 c7bd 7310 ec3c f236 f83d
000002e0: 33ca 4dbd 5a49 dd3c 0d75 103e 6d43 e5bd
000002f0: ae1f 1ebe 5670 233e 9f71 d0bd f5d6 9abd
00000300: cb46 bf3c 5ec0 9cbd 6fcf 7e3d 48cf b3bd
00000310: 7f63 86bc feb6 8bbc 2245 8ebd 4fcf 9a3d
00000320: 8c99 e83d 9883 19be 5717 d43d a2cb c23d
00000330: b480 5f3d 6747 013d 7d66 de3d 7e5d 0bbd
00000340: 11f0 a23c 1f2f 89bd ff94 0c3e de16 35bd
00000350: e199 bc3d 2ae2 5dbd 0e68 13be 8e4c 6c3d
00000360: 08eb 94bd a423 a5bc c1d6 e7bc e2b9 913d
00000370: 423f a7bd 98c7 23bd 57db d4bd f3e2 fc3d
00000380: bf21 c13d 76cf ac3d 4381 d13d 9b4e ebbc
00000390: acc0 e23d bd2e 413d 54ff a6bd a6a1 17bd
000003a0: 2080 09bb d349 093c 2a1a c23d 0b86 0dbe
000003b0: df02 95bd 2e0e c43d 7f58 80bd 1eb1 f1bd
000003c0: a1f0 f33c 02a7 a1bd 85a5 72bd d9a4 a6bd
000003d0: 9a69 36bd 90bf 11bd 8543 a0bd c977 d3bb
000003e0: 9543 fabc a8bb e63d bbed c6bd a4b1 f5bd
000003f0: 0daa e13c b924 ed3d 003c 08be fca7 3d3d

lstm.weight_hh_l1 f4 [256, 64]
0.027778275 0.087316655 0.11615519 -0.08683741 0.114680484 0.08592435 0.062204763 0.12643845
-0.031219922 0.056571025 -0.09814663 -0.05563941 -0.05934618 -0.09552769 -0.037994985 -0.06278607
0.060312312 -0.03310026 -0.07423892 -0.0839653 -0.054020584 0.10554469 -0.009443858 0.023614684
0.076355346 -0.0861094 -0.09777928 0.026715921 -0.0113705285 0.056472704 -0.09509572 -0.11140498
-0.088816285 0.09037567 0.04156113 -0.07177197 0.036647342 0.044009473 -0.02884922 -0.12270799
-0.106053434 0.032760546 -0.05125669 -0.1058416 0.039429154 0.046354033 0.08909035 -0.0034961386
0.022590565 -0.041007027 -0.0639279 -0.037524194 -0.08631203 0.019707233 -0.04414227 0.11905668
-0.04193999 -0.108061366 -0.12855782 -0.116932675 0.07991765 0.08881285 -0.05486562 -0.03571234
0.053050563 -0.121938206 0.0057948497 0.09891785 0.10324662 -0.05183688 0.027874023 0.09970458
-0.094559684 0.09170629 0.0069160974 -0.045293808 -0.110299304 -0.052447602 0.06423603 -0.018205931
0.12445655 0.063000925 -0.028060861 0.07969736 0.118884906 0.039587837 -0.013012079 -0.015930852
0.12300299 -0.05914577 0.09220853 0.08845097 0.07971144 -0.05183104 -0.08216764 -0.03460121
0.078436 0.10899622 -0.062197343 0.022707427 0.055019762 -0.014211298 0.09956921 0.10716332
-0.038107492 -0.022884434 -0.10322789 0.03975126 -0.11628259 -0.1180692 -0.0064676623 -0.11888676
-0.088798136 0.1004587 -0.03060698 0.087473415 0.0501305 0.12955126 -0.041685477 -0.0025814911
-0.11477555 -0.08362089 -0.030828586 0.00011296203 0.04198455 0.057479482 -0.003072097 0.09677771
-0.0067401123 -0.023282705 -0.047701146 -0.029937914 -0.041121468 -0.0007992177 0.03462829 0.11874813
-0.07498838 -0.05794285 -0.028125372 -0.0047584497 -0.052385032 0.09811602 0.11354356 -0.057965178
-0.09968323 -0.030426603 -0.13311669 0.053033866 -0.0784428 0.051301725 0.06401583 0.023026844
0.09885893 -0.05960214 0.12495067 -0.056061257 -0.11552242 -0.10371474 -0.036795728 0.058587357
0.10370564 -0.079118386 0.018073939 0.03389543 -0.076670855 0.07879672 -0.1085049 0.046654508
-0.011464165 -0.0059249243 0.0066671977 0.11948571 -0.10618964 -0.05601484 -0.0025214527 -0.057587318
0.02546625 0.11324246 0.0043526995 0.13224442 0.0057659675 0.107899055 -0.0406679 0.031757284
-0.0020229067 0.085908614 0.12011897 0.0936283 -0.03619978 0.05777948 0.06305274 -0.061768703
0.09141967 -0.07241691 -0.0023063465 -0.04036959 -0.0038555863 -0.1328146 -0.02132428 0.08597235
0.042504895 -0.113480374 0.0959344 0.13579969 0.109731235 -0.024794485 -0.052481417 -0.053439382
0.05821151 0.02618192 -0.038294584 -0.021195348 -0.010620706 -0.035546627 0.02981072 0.058559135
0.12272323 0.03176537 -0.0488335 -0.05307083 0.036495697 0.033016916 -0.10124019 0.07428049
0.028186345 0.048409835 -0.026904786 0.06376606 0.09260919 0.047537606 -0.071788296 0.026208367
-0.091598116 -0.024616353 -0.023521598 0.10049609 -0.11326211 0.019213744 0.005632806 -0.057702728
-0.044119317 0.03580704 0.104985766 -0.0148162525 0.04817324 -0.08132431 -0.07829313 0.09256279
0.0037099938 0.0733093 -0.0043182992 0.026809959 0.1209442 0.023973275 0.03481546 0.04617691
00000000: 448f e33c 13d3 b23d c6e2 ed3d d0d7 b1bd
00000010: 9add ea3d 1bf9 af3d 6cca 7e3d 1579 013e
00000020: ecc0 ffbc 05b7 673d 1a01 c9bd 26e6 63bd
00000030: fb14 73bd 06a4 c3bd a1a0 1bbd fc95 80bd
00000040: 0b0a 773d 2394 07bd 930a 98bd 00f6 abbd
00000050: b044 5dbd d027 d83d 69ba 1abc 9573 c13c
00000060: 3160 9c3d 205a b0bd 8140 c8bd 59db da3c
00000070: 744b 3abc ec4f 673d 8bc1 c2bd 4b28 e4bd
00000080: 50e5 b5bd e116 b93d 013c 2a3d 2ffd 92bd
00000090: 861b 163d 4743 343d 3355 ecbc 544e fbbd
000000a0: 8b32 d9bd ec2f 063d 89f2 51bd 7bc3 d8bd
000000b0: 7780 213d badd 3d3d 0075 b63d 791f 65bb
000000c0: d90f b93c fcf6 27bd a1ec 82bd f8b2 19bd
000000d0: 5dc4 b0bd 1071 a13c 86ce 34bd fdd3 f33d
000000e0: 44c9 2bbd 474f ddbd a9a4 03be 667a efbd
000000f0: ddab a33d 83e3 b53d c6ba 60bd 1a47 12bd
00000100: 8c4b 593d bdba f9bd b9e2 bd3b 7195 ca3d
00000110: f772 d33d e952 54bd 1058 e43c ea31 cc3d
00000120: 82a8 c1bd 82d0 bb3d 6ea0 e23b 0086 39bd
00000130: 9ae4 e1bd 4cd3 56bd 2e8e 833d 9b24 95bc
00000140: 13e3 fe3d a106 813d e4df e5bc 5f38 a33d
00000150: ee79 f33d db26 223d 9d30 55bc 6b81 82bc
00000160: fee8 fb3d d642 72bd d3d7 bc3d c825 b53d
00000170: c03f a33d c94c 54bd 8247 a8bd 00ba 0dbd
00000180: 0ea3 a03d 6939 df3d a4c2 7ebd ed04 ba3c
00000190: 675c 613d 81d6 68bc f1ea cb3d 7178 db3d
000001a0: 9a16 1cbd 2378 bbbc 2569 d3bd 38d2 223d
000001b0: 9125 eebd 44ce f1bd afee d3bb e77a f3bd
000001c0: ccdb b5bd 4abd cd3d 7dbb fabc 4325 b33d
000001d0: a455 4d3d 16a9 043e 64be 2abd 3c2e 29bb
000001e0: 720f ebbd 6e41 abbd 3b8c fcbc 07e6 ec38
000001f0: fef7 2b3d 9b6f 6b3d 3c55 49bb 6433 c63d
00000200: 29dc dcbb 5fbb bebc 4762 43bd 5b40 f5bc
00000210: fc6e 28bd 9882 51ba 65d6 0d3d 3832 f33d
00000220: 8293 99bd 7b55 6dbd 2e67 e6bc c5ec 9bbb
00000230: b091 56bd 0df1 c83d 8789 e83d e56c 6dbd
00000240: b926 ccbd 3641 f9bc be4f 08be 0a3a 593d
00000250: 9ea6 a0bd c221 523d bb1a 833d cba2 bc3c
00000260: 8d76 ca3d 6021 74bd 23e6 ff3d 7da0 65bd
00000270: 0597 ecbd 6568 d4bd 1eb7 16bd 4cf9 6f3d
00000280: 9f63 d43d d208 a2bd cc0f 943c efd5 0a3d
00000290: 9c05 9dbd 2d60 a13d d137 debd cc18 3f3d
000002a0: 31d4 3bbc de25 c2bb 8278 da3b edb4 f43d
000002b0: f479 d9bd d16f 65bd f53e 25bb aee0 6bbd
000002c0: 999e d03c aaeb e73d 17a1 8e3b 156b 073e
000002d0: 71f0 bc3b 2efa dc3d 6293 26bd ed13 023d
000002e0: be92 04bb dbf0 af3d ef00 f63d 32c0 bf3d
000002f0: 3846 14bd 2daa 6c3d cc21 813d 2e01 7dbd
00000300: 3c3a bb3d 514f 94bd 1326 17bb 955a 25bd
00000310: 01ae 7cbb 8d00 08be 42b0 aebc 4512 b03d
00000320: 9d19 2e3d 6668 e8bd 4179 c43d 130f 0b3e
00000330: c5ba e03d ce1d cbbc c1f6 56bd 41e3 5abd
00000340: 316f 6e3d 777b d63c c8da 1cbd dea1 adbc
00000350: 7802 2ebc 5799 11bd 9c35 f43c b4db 6f3d
00000360: 5156 fb3d 681c 023d a305 48bd cc60 59bd
00000370: 837c 153d bf3c 073d 0457 cfbd 5f20 983d
00000380: 0de7 e63c 6449 463d 6d67 dcbc c897 823d
00000390: e3a9 bd3d cbb6 423d be05 93bd eeb2 d63c
000003a0: cb97 bbbd 3ca8 c9bc 5eb0 c0bc e5d0 cd3d
000003b0: f7f5 e7bd 2466 9d3c 6793 b83b b259 6cbd
000003c0: 75b6 34bd 67aa 123d c702 d73d debf 72bc
000003d0: 4e51 453d 5c8d a6bd 2658 a0bd 8f91 bd3d
000003e0: 5e23 733b 3023 963d 8580 8dbb 8fa0 db3c
000003f0: 98b1 f73d 9a63 c43c a89a 0e3d 0024 3d3d

lstm.bias_ih_l1 f4 [256]
-0.029953847 -0.014156911 0.010464267 -0.09080261 0.04329722 0.025434231 -0.030882536 -0.0390617
-0.050043955 0.09357071 -0.066025876 -0.044329736 -0.08013341 -0.092350625 0.08235899 -0.08505051
0.067678034 0.10027439 -0.015495449 -0.029277172 -0.11848155 -0.068656966 -0.017919766 0.0011121318
0.021739123 -0.053769372 -0.038953032 0.041677445 -0.10677718 -0.0994475 0.09932669 -0.052002132
-0.09294789 -0.06728117 -0.05425951 -0.08398654 -0.105750576 0.09178384 -0.04457258 -0.105982795
-0.014418412 0.031473517 -0.11568463 -0.04171665 -0.007076274 -0.04378493 -0.12076422 -0.056953397
-0.053497702 0.11999908 0.019863233 0.09093928 0.108176835 0.0010743856 0.091677904 -0.061206527
0.044059016 0.047674973 -0.11004334 -0.076873735 0.06426235 0.014644911 0.056036215 0.007901285
-0.0037626398 -0.030575763 -0.020351237 -0.11551224 0.060744904 0.049597297 0.027982388 0.018350786
0.10067755 -0.028936248 0.017327733 -0.03835326 0.010592747 -0.073096134 -0.10912023 -0.084218
-0.010689199 -0.053574715 -0.020019334 -0.018143408 0.06609736 -0.10068963 0.058438983 -0.018569611
0.020855986 0.06297784 -0.0022021062 -0.042103656 0.06306452 -0.04049154 0.10016907 -0.03255843
0.09682061 0.11820481 0.1324195 0.04017657 -0.050951783 -0.016109332 0.083548285 -0.054144472
-0.09610101 -0.0385652 -0.00869822 0.037084218 0.00057354115 0.095944956 -0.01741471 0.07942628
-0.10579908 -0.045082632 -0.073089935 -0.0690016 0.044418637 0.0964665 -0.102546476 0.12582214
-0.057509784 0.078069806 -0.1261265 0.100323424 -0.018177725 0.03756054 -0.08214942 -0.05125044
-0.06030959 -0.031376924 -0.023440912 0.102922134 -0.008605351 -0.09198407 0.07256512 0.08631229
-0.10542543 -0.00040375403 0.057254843 0.037382405 0.014297987 -0.04391486 -0.026740102 -0.05758018
0.07241228 0.032394096 0.055915233 -0.024165845 -0.10029761 0.023191227 -0.054088574 -0.04674968
-0.03709718 0.101499215 -0.02122641 0.054435473 -0.1081036 -0.094481714 -0.048348043 -0.064823054
-0.11741566 -0.031182645 0.056443382 0.019345347 0.010864271 -0.050724715 -0.0968491 -0.06280881
0.036871452 -0.004012426 0.040006142 0.01922856 -0.08437205 0.015539882 0.0008501768 -0.057601113
-0.029601974 0.06419784 0.08179895 -0.115183875 -0.036759846 -0.044048548 0.101689875 0.03025922
0.10638842 -0.09934673 0.050079823 -0.017080978 0.08229693 0.068135604 0.017637333 0.116114564
-0.0191803 0.081254184 -0.051959004 0.029438743 0.06454349 -0.06613102 -0.030920874 -0.017783353
-0.06444703 0.043717377 -0.13693945 -0.096429884 -0.051760904 -0.0019029295 -0.09229115 -0.009023764
-0.0546131 -0.13836274 -0.051747795 -0.13533197 -0.06400512 0.10626822 0.006659741 0.035400987
-0.08244567 -0.069428824 -0.025743987 -0.096373565 -0.11140274 -0.047885064 0.04166407 0.12116539
0.087146915 0.09495809 0.09081936 0.010142425 0.10844403 0.044372104 0.050736487 -0.06788884
-0.019680606 -0.042357393 0.10922591 -0.10900017 0.031422373 -0.010274758 -0.0819259 -0.12440892
0.043273702 -0.09300158 -0.011538809 -0.007585697 0.11014796 -0.09690483 0.087166384 -0.063699
0.08903878 0.035431597 -0.10896601 0.088703334 -0.09734277 0.015360754 -0.047860824 0.055286985
00000000: c561 f5bc 63f2 67bc 5172 2b3c b8f6 b9bd
00000010: 6d58 313d 735b d03c 5ffd fcbc 29ff 1fbd
00000020: e4fa 4cbd 00a2 bf3d 9338 87bd 1993 35bd
00000030: fc1c a4bd 5322 bdbd d5ab a83d f62e aebd
00000040: c89a 8a3d a95c cd3d a0e0 7dbc aed6 efbc
00000050: 74a6 f2bd 069c 8cbd 79cc 92bc f3c4 913a
00000060: 3f16 b23c 463d 5cbd 378d 1fbd f8b5 2a3d
00000070: ffad dabd 22ab cbbd cb6b cb3d 3000 55bd
00000080: 775b bebd b6ca 89bd 383f 5ebd 2301 acbd
00000090: c293 d8bd 2af9 bb3d bd91 36bd 820d d9bd
000000a0: 343b 6cbc 60ea 003d 10ec ecbd 14df 2abd
000000b0: 17e0 e7bb d457 33bd 3b53 f7bd f747 69bd
000000c0: 6820 5bbd 14c2 f53d 38b8 a23c 603e ba3d
000000d0: d18b dd3d 66d2 8c3a a0c1 bb3d b2b3 7abd
000000e0: 3a77 343d d546 433d 675e e1bd fa6f 9dbd
000000f0: fb9b 833d 35f1 6f3c 3b86 653d 6474 013c
00000100: 9f96 76bb 067a fabc a3b7 a6bc ae91 ecbd
00000110: a6cf 783d 8926 4b3d 523b e53c 6354 963c
00000120: 0830 ce3d b60b edbc e4f2 8d3c 4f18 1dbd
00000130: 338d 2d3c 6db3 95bd 6d7a dfbd 7d7a acbd
00000140: c021 2fbc 2971 5bbd 96ff a3bc 7ca1 94bc
00000150: 0d5e 873d 5d36 cebd b75d 6f3d 4c1f 98bc
00000160: 2cda aa3c 87fa 803d 3651 10bb e274 2cbd
00000170: f927 813d 75da 25bd 7125 cd3d fd5b 05bd
00000180: e249 c63d 5d15 f23d fa98 073e 3090 243d
00000190: d1b2 50bd b8f7 83bc 5d1b ab3d 98c6 5dbd
000001a0: 9bd0 c4bd 8bf6 1dbd fb82 0ebc 9fe5 173d
000001b0: b259 163a ca7e c43d 4ba9 8ebc 3faa a23d
000001c0: 30ad d8bd 91a8 38bd 2db0 95bd b650 8dbd
000001d0: 51f0 353d 3a90 c53d e303 d2bd 85d7 003e
000001e0: 618f 6bbd 10e3 9f3d 4e27 01be 5e76 cd3d
000001f0: 74e9 94bc 15d9 193d f53d a8bd fbeb 51bd
00000200: 3007 77bd 1785 00bd 2807 c0bc d7c8 d23d
00000210: 75fd 0cbc 2562 bcbd 069d 943d 7fc4 b03d
00000220: 4ae9 d7bd f3ae d3b9 0e84 6a3d 4b1e 193d
00000230: 1b42 6a3c 11e0 33bd 0f0e dbbc 32d9 6bbd
00000240: e44c 943d acaf 043d 5f07 653d 73f7 c5bc
00000250: d568 cdbd 87fb bd3c fb8b 5dbd 987c 3fbd
00000260: 36f3 17bd d2de cf3d 02e3 adbc bbf7 5e3d
00000270: 6c65 ddbd a17f c1bd 9908 46bd f3c1 84bd
00000280: 9f77 f0bd bf72 ffbc 2d31 673d 227a 9e3c
00000290: 0e00 323c b8c4 4fbd d258 c6bd e8a1 80bd
000002a0: 8506 173d ab7a 83bb 7bdd 233d 3785 9d3c
000002b0: 41cb acbd fd9a 7e3c 66de 5e3a 25ef 6bbd
000002c0: d77f f2bc 287a 833d 3586 a73d 86e5 ebbd
000002d0: 7e91 16bd 406c 34bd c842 d03d 2fe2 f73c
000002e0: 2ce2 d93d 4c76 cbbd 8020 4d3d 68ed 8bbc
000002f0: 4b8b a83d ae8a 8b3d 2b7c 903c 79cd ed3d
00000300: 0120 9dbc 9868 a63d f7d2 54bd 8529 f13c
00000310: 612f 843d b36f 87bd c64d fdbc 65ae 91bc
00000320: cefc 83bd fe10 333d db39 0cbe 087d c5bd
00000330: 3e03 54bd b86b f9ba 2403 bdbd 69d8 13bc
00000340: fcb1 5fbd f6ae 0dbe 7ff5 53bd 7794 0abe
00000350: 1e15 83bd 27a3 d93d f539 da3b a000 113d
00000360: 47d9 a8bd b330 8ebd 0ee5 d2bc 815f c5bd
00000370: 1f27 e4bd 2123 44bd f2a7 2a3d 8f25 f83d
00000380: 157a b23d 6379 c23d 80ff b93d 6a2c 263c
00000390: e717 de3d 86bf 353d 10d1 4f3d 4e09 8bbd
000003a0: 3939 a1bc f27e 2dbd d5b1 df3d 7b3b dfbd
000003b0: bfb4 003d 7557 28bc c4c8 a7bd 1bca febd
000003c0: c43f 313d 9d77 bebd 460d 3dbc 7091 f8bb
000003d0: 4195 e13d 0a76 c6bd 4a84 b23d 9f74 82bd
000003e0: f759 b63d b920 113d 9229 dfbd 18aa b53d
000003f0: a55b c7bd acab 7b3c b609 44bd 9b74 623d
